customer/data.pth (torch, 11242 bytes, 6 tensors)

l1.weight f4 [8, 146]
000000 d3 e6 3f 3d e2 70 51 3e 8a 2b fa 3e c4 37 0e 3f
       0.04685099 0.20453218 0.48861343 0.5555384
000010 b2 74 c1 be 36 bc 2b 3e 06 2c 80 3e ea 38 50 3e
       -0.37784344 0.16771016 0.25033587 0.20334211
000020 01 b2 b5 3b ba 6d c1 3e 4b 7d f2 3e f1 eb 93 3e
       0.0055449014 0.37779027 0.47361216 0.28890947
000030 f9 0d 7b 3e f6 4f 09 3f af a7 b1 bd 37 6c 07 bd
       0.24517049 0.53637636 -0.08674561 -0.033062186
000040 99 cf 80 3e 4c 0b 12 3e f4 e0 b8 bd 90 2b d0 be
       0.25158384 0.14262122 -0.090272814 -0.40658236
000050 8d 25 c3 3e 83 cb 94 be 5b 26 78 bd 17 8d 67 be
       0.38114586 -0.29061517 -0.060583454 -0.22612415
000060 cd 9f ed 3e e2 25 d5 bc fa 77 b6 3e eb 63 b9 3e
       0.4641098 -0.02601904 0.3563841 0.36209044
000070 4c 39 eb bd f5 f1 06 be 91 08 e7 3e 4e 86 ec 3d
       -0.11485538 -0.13178237 0.45123723 0.11549054
000080 e6 8d f7 3e de f4 42 3e 0c d1 2f 3e 9b 56 18 3e
       0.48350447 0.19038722 0.17169589 0.14876787
000090 08 cc 89 3d 37 34 82 be 99 cc 23 3e 00 8d ee be
       0.06728369 -0.25430462 0.15996017 -0.4659195
0000a0 3f 99 08 3f 67 7a 09 be de 2c 9b 3e 9a d3 a5 3e
       0.53358835 -0.13425599 0.30307668 0.32388002
0000b0 e8 91 96 3d a5 6c a9 3d bf d1 8f 3e 5f ea 0e 3f
       0.07352048 0.082726754 0.2808971 0.5582637
0000c0 7e 23 00 3e 8a 3d 80 be cb f3 16 3f 0d 2c 96 3e
       0.12513539 -0.2504695 0.5896575 0.29330483
0000d0 21 51 7c 3e aa ad 23 3e e9 26 ba 3e 64 4a 1b 3f
       0.24640323 0.15984216 0.3635781 0.60660386
0000e0 23 71 76 3f 5d dd e0 3e 4c 5d 95 bd 96 38 47 3f
       0.9626638 0.43918887 -0.072931856 0.7782072
0000f0 bf 5d 2b be c6 0c 24 3f 49 2f d2 3e e4 06 a4 be
       -0.1673498 0.6408199 0.410517 -0.32036507
000100 5c 7b 90 bd 9a a9 bc be 08 b0 64 be c7 9f f1 be
       -0.07054779 -0.36848146 -0.22332776 -0.47192213
000110 13 b8 22 be 60 71 92 3e 7b 94 f2 be fe b9 8d 3e
       -0.15890531 0.28602123 -0.47378907 0.27680963
000120 35 c2 f2 be ee 32 4d be 7c d5 28 3f f2 48 ad bd
       -0.47413793 -0.2003896 0.6595075 -0.08461179
000130 45 9a f2 be 0e bd b7 be 27 ed c8 be 2a f1 2b 3e
       -0.47383323 -0.35886425 -0.39243433 0.16791216
000140 8f eb 79 3f 53 8d af bd 08 8d 16 3f 3a e5 99 bd
       0.9762506 -0.08571877 0.58808947 -0.075144246
000150 9a 4a e2 bd 13 b2 c9 3e f3 07 90 be 0f 46 c3 be
       -0.11049385 0.39393672 -0.28131065 -0.38139388
000160 98 08 89 3e 51 e7 86 3e 07 10 67 3e 0f c8 42 bc
       0.2676437 0.26348355 0.22564708 -0.011888518
000170 4d d5 09 bd 28 e3 cf 3d cf 15 5c 3f 94 d2 ae be
       -0.033650685 0.101507485 0.8597078 -0.34145033
000180 45 e0 e6 bd 9a 00 e4 bd 08 9f 64 3e cb 7d 06 bd
       -0.11273245 -0.11132927 0.2232629 -0.03283481
000190 fe 2a ac be 6f 75 b5 3e 50 0b 01 3e c8 26 09 be
       -0.3362655 0.35441157 0.12601972 -0.133937
0001a0 19 ec a9 3a ea e5 cc 3d 9e bc 6e 3e b6 67 1b 3f
       0.0012964039 0.1000479 0.23314139 0.60705125
0001b0 ef 54 c2 3e 26 45 ae be 1e fe 2d 3f 3a 88 b2 be
       0.37955424 -0.3403713 0.6796588 -0.34869558
0001c0 d7 11 1f bd 6b 91 9c 3e b3 70 c1 3e 29 28 8e bd
       -0.038835373 0.30579695 0.37781295 -0.06941254
0001d0 93 78 fc 3e 57 79 20 3f 2a ed 78 be 4a b8 03 3d
       0.4931074 0.6268515 -0.24309221 0.032158174
0001e0 f7 12 5e 3f 2d fa 66 bd f7 d3 ae 3e 97 75 ad 3e
       0.8674769 -0.05639093 0.3414609 0.33878776
0001f0 2d 41 05 be 3b 4d c5 bd 58 98 3d 3e d6 82 49 3e
       -0.13013144 -0.09633871 0.18515146 0.19678816
000200 d0 76 f8 3d f6 35 30 3f 8b 04 35 be 0f 6c 58 3f
       0.12132037 0.6883234 -0.17677514 0.84539884
000210 95 f4 1c 3f a1 03 8c be 77 98 0a bd 91 fc 2c be
       0.613107 -0.2734652 -0.033836808 -0.16893221
000220 d0 08 45 be eb 0c 37 bc 8d 8a 8f 3e cd 2d 83 3e
       -0.19241643 -0.0111725135 0.28035393 0.2562088
000230 4a be 0c be 9d 77 30 3e b9 df e3 3e d4 7e bb bc
       -0.13744465 0.17233129 0.44506624 -0.022887625
000240 3c bb b6 be 67 91 4e 3d a2 6e 8c be 50 9e 53 bd
       -0.35689723 0.050431635 -0.27428156 -0.05166465
000250 73 9a 1a 3f 7f 88 2e 3f b1 ca da be 84 28 32 bf
       0.6039192 0.68177027 -0.42732766 -0.6959307
000260 55 a8 96 bd d4 88 28 3d c1 33 9d be a8 a9 b1 be
       -0.073563255 0.041146114 -0.30703548 -0.3469975
000270 56 2b 3c 3f 1d 9b 20 3f a2 cf ba 3e b4 e3 59 3c
       0.73503625 0.62736684 0.36486536 0.013298918
000280 b7 b8 0d 3f e7 ce 37 be 40 ba 8e be 0e e8 92 be
       0.5535998 -0.1795002 -0.27876472 -0.2869267
000290 b3 38 e5 3d ed b5 fa 3e b8 3b 55 3e 98 db b0 3c
       0.11192455 0.48966923 0.20823562 0.021589085
0002a0 a3 9d 50 be c4 bb 18 3f f4 7e 40 3f c3 43 96 3d
       -0.20372634 0.5966151 0.75193715 0.07337143
0002b0 a6 32 22 3f 1a e1 cc bd 2e b4 d9 3e 2a 65 88 3e
       0.63358533 -0.10003872 0.4252028 0.26639682
0002c0 a8 a4 c8 3e c3 bf 96 bd 3a 7c 1c 3e 00 d9 51 3c
       0.39188123 -0.073607944 0.15281764 0.0128080845
0002d0 2b d5 b9 be 27 53 1a 3f 24 99 f5 bd a5 12 a3 be
       -0.36295447 0.6028313 -0.119921 -0.31850162
0002e0 06 6e f4 3c 61 8a 2e 3f 23 bb 38 bf d0 49 84 3e
       0.02983762 0.681799 -0.7216055 0.25837564
0002f0 86 5a c6 3e 74 e1 75 3e ec 63 3d 3f ba 4c 2c bf
       0.3874094 0.24011785 0.73980594 -0.67304575
000300 a1 34 13 3d 17 fc f8 3d 67 dd 95 bc 2b 9d 13 3f
       0.035938863 0.12157457 -0.01829405 0.57661694
000310 58 0e 3b 3f 06 90 f4 bc 9b 88 5b be e5 99 18 3f
       0.7306876 -0.029853832 -0.2143883 0.59609824
000320 66 04 9e 3e a3 8c 15 3e 51 b4 93 3e bc 18 20 3f
       0.3086273 0.1460443 0.28848508 0.6253774
000330 ac 05 0f 3e 82 8b 70 be 30 f0 17 3f ec 63 1b be
       0.13967007 -0.23490718 0.5935087 -0.15174836
000340 c4 f1 ae be 3a aa 61 3f 85 97 0d 3f bc 7c c9 be
       -0.34168828 0.8815037 0.55309325 -0.39352977
000350 07 6b 0e 3f ea 1f 14 3f 55 26 3a be 7d e5 c3 bd
       0.5563206 0.57861197 -0.18178685 -0.09565256
000360 09 e0 40 3f 88 5c 08 3d a9 38 46 3f 1b 06 01 3f
       0.7534185 0.03329137 0.77430207 0.5039994
000370 55 94 a2 be 5e c7 83 be 15 81 1f 3f 96 34 05 bf
       -0.31753793 -0.25738043 0.6230634 -0.52033365
000380 0e 8d 17 3f 0a 85 8e 3e 07 ec 4a 3f 4f 32 9d 3e
       0.5919961 0.27835876 0.792664 0.30702445
000390 e7 3f 02 3e f1 bd 62 be d8 83 e8 3e c0 f6 ab 3e
       0.1271969 -0.2214277 0.4541309 0.33586693
0003a0 a7 2b c0 3e 29 80 d7 3e 8f ce 0d be bb 4a c9 be
       0.37533304 0.42089966 -0.13848327 -0.39314827
0003b0 32 63 93 3e 0f 9a 9c bb 4f ed 82 be 09 f7 26 3f
       0.28786618 -0.0047791074 -0.25571677 0.65220696
0003c0 8a 1b 03 3f e8 07 3f 3f 69 39 b1 3e 02 52 6d 3e
       0.51213896 0.7462144 0.34614113 0.23175815
0003d0 90 66 38 bd 02 c4 f2 3e 1b e6 c1 3e 8b 5a 9c 3e
       -0.045019686 0.47415167 0.3787087 0.3053783
0003e0 67 16 22 3e 22 35 ad 3d 13 39 aa be 15 7b 21 be
       0.15828858 0.084574 -0.3324667 -0.15769608
0003f0 4c 3c c5 be 22 b2 06 bf f9 f6 96 3e 89 eb 07 bf
       -0.38522565 -0.5261556 0.294853 -0.53093773

l1.bias f4 [8]
000000 74 9d f2 3e 16 e1 95 3f d3 e7 1e 3f cd 8d 9f 3f
       0.47385752 1.1709316 0.62072486 1.2465149
000010 32 d8 18 3f aa 23 3c 3f b6 5c d6 3e 06 e1 41 3f
       0.5970489 0.7349192 0.41867608 0.75733984

l2.weight f4 [8, 8]
000000 7e 5b 80 3f 8e f7 67 bf ac 43 69 3e ca bd d6 3f
       1.0027921 -0.90612113 0.22779721 1.6776669
000010 5b 26 f6 bd ce 29 c7 3f 54 57 b6 3f d8 7c 7d bd
       -0.120190345 1.5559633 1.42454 -0.06188664
000020 fa f2 92 3f de 32 9a 3e 49 1b 6d bf 71 75 8c 3e
       1.14804 0.30116934 -0.9261976 0.2743335
000030 36 ea 98 3f 57 17 92 bd 2f 57 a4 3e 33 17 2f 3f
       1.1946476 -0.07133358 0.32097766 0.68394774
000040 d7 ab 3d 3d 50 c4 7d 3f c0 a3 12 3f 11 aa 98 3f
       0.046306457 0.99127674 0.5728111 1.19269
000050 ed 5f 4d bf f8 59 ba bf c7 0f 00 3e bd 7e f6 3f
       -0.80224496 -1.4558706 0.12506019 1.9257427
000060 e4 9b 79 3f d8 be 00 3e a8 0e 9e 3f a7 47 5a bd
       0.97503495 0.12572801 1.2348223 -0.05329099
000070 be 3e 9a 3f ba 40 ea bd a7 a7 93 bf d7 e2 dd be
       1.2050397 -0.11438127 -1.1535538 -0.43337128
000080 df 94 7a 3f 0b 6d da 3f cc a3 9b 3f 6f d0 46 bf
       0.9788341 1.7064527 1.2159362 -0.77661794
000090 14 1e 98 bf e7 0b 84 3f 01 a3 b5 3f 7a 91 9a bc
       -1.1884179 1.0316132 1.419037 -0.018868197
0000a0 6e d8 0c bf 50 54 8e 3f 83 45 25 bf 46 25 78 3f
       -0.55017745 1.111948 -0.6455919 0.96931875
0000b0 82 70 82 be 33 56 69 3f 52 52 48 bf 4e bb e6 3e
       -0.25476462 0.91147155 -0.7825061 0.45064777
0000c0 5d 43 53 3e b7 5e a9 3f ed f5 d4 be b2 2b 7a 3e
       0.20631166 1.323203 -0.41593876 0.24430731
0000d0 a5 4b 9c 3f 2f 6e 9f 3e d1 07 2e bf c7 a8 1f bf
       1.2210585 0.3113875 -0.67980677 -0.6236691
0000e0 ba 0c 1e 3e 19 4c 06 3f e5 83 89 bf 22 85 5e 3f
       0.15434542 0.52459866 -1.0743376 0.86921895
0000f0 75 e9 66 3e c1 46 d9 3e a8 a2 a6 bd 1e 6f 0f bf
       0.22549994 0.42436793 -0.08136493 -0.56028926

l2.bias f4 [8]
000000 45 aa b7 3e ed 1a 33 bf bc 4c 1e 3f 07 52 c8 3e
       0.35872093 -0.6996296 0.6183584 0.39125082
000010 56 b2 f7 3e dc e1 55 3f c5 87 0e 3f 1a a8 bd 3c
       0.48378247 0.8354776 0.5567592 0.023151446

l3.weight f4 [35, 8]
000000 48 59 e4 3c 8f 36 08 3f f9 f2 e7 3e fa 2d 61 bf
       0.027874604 0.5320825 0.4530256 -0.8796078
000010 6a e9 9b bf 57 e6 73 bd 02 fa c0 bf dc 8b db bf
       -1.2180607 -0.05954584 -1.5076296 -1.7152057
000020 0c d0 ff 3d 34 c5 b7 bd 63 85 d6 bf 1c 9b 3a bf
       0.12490854 -0.089731604 -1.6759456 -0.7289293
000030 4c e0 7d 3e e5 74 e9 bf f6 84 a9 3d df 86 65 3e
       0.24792594 -1.8238798 0.082773134 0.2241473
000040 56 64 be be 53 ce 89 3e 0c 68 b0 3e a2 d0 1b bf
       -0.37185925 0.26915225 0.3445438 -0.60865223
000050 c8 08 01 c0 ae c7 30 3e 9b cc d8 3d 80 43 43 3e
       -2.016161 0.17263672 0.105859004 0.19068718
000060 e3 2c 7f 3e 00 77 98 be a3 d6 84 3c 60 65 00 c0
       0.24919467 -0.2977829 0.016215628 -2.0061874
000070 35 86 92 3e 4d 35 7e bf 7e 91 d0 bf 9d 69 ba bf
       0.28618017 -0.9930008 -1.6294401 -1.4563481
000080 50 73 02 c0 b5 68 0e c0 e0 26 2e 3e 74 90 36 bf
       -2.038288 -2.2251408 0.17007017 -0.7131417
000090 ae e9 db 3e 15 2a 16 3f 1a ce 8b 3e 48 a8 10 c0
       0.4295172 0.5865796 0.2730568 -2.260271
0000a0 19 29 f1 3d 7b 0c d3 3e 25 e7 c5 3d 17 6a 36 be
       0.11775417 0.4122046 0.09663228 -0.17813908
0000b0 79 1d a3 bf 64 40 be bf 4a 55 c3 bd 41 e4 58 bf
       -1.2743369 -1.48634 -0.09537752 -0.8472329
0000c0 42 88 56 be f7 3e 13 c0 88 08 56 be 65 0b 61 be
       -0.20950416 -2.300718 -0.20901692 -0.21977003
0000d0 b8 c5 f0 3e bf d7 0e bf b0 07 cf 3d 8d 22 f3 bf
       0.47025847 -0.5579795 0.10108888 -1.8994919
0000e0 3c 8a 97 3e de f7 d4 bf 91 22 ae bf 7b 28 bb be
       0.29597652 -1.6638143 -1.3604299 -0.36554322
0000f0 ef 06 21 3f 2a 0d a0 bf 98 32 b9 bf d9 e5 80 bf
       0.62901205 -1.2504017 -1.4468565 -1.0070144
000100 77 b3 0e bf b3 f0 fe 3e f9 e3 9c bf bb 26 59 be
       -0.5574259 0.49793014 -1.2257072 -0.21206181
000110 bc 2f 5d 3c 16 9d 68 bf fe 6d 13 3f 80 a7 b7 bf
       0.01350015 -0.90864694 0.5758971 -1.4347992
000120 28 3f 22 be 64 3f fc 3d da f1 52 bf a6 4d 5f bf
       -0.15844405 0.12316778 -0.82400286 -0.8722786
000130 d1 94 e9 bd d7 1f 6e be e2 11 19 3e 76 d7 d8 3e
       -0.114053376 -0.23254333 0.14948228 0.42351884
000140 9b 5c a3 bf 9d 1f 8d be ad 2d 9f bf 02 77 1c bf
       -1.2762636 -0.27563182 -1.2435814 -0.6111909
000150 bb 51 9e 3e a6 df ea 3e 3e 14 81 3e 74 c8 e6 3e
       0.3092173 0.45873755 0.25210756 0.4507481
000160 22 b3 5d 3e b6 ee d6 bf 7f 0d 35 bf 20 94 e8 bf
       0.21650365 -1.6791599 -0.7072372 -1.8170204
000170 7d 06 e5 3d d3 15 65 3f e5 fd 0e 3e 9f a3 12 3e
       0.11182878 0.89486426 0.1396404 0.14320229
000180 5f 4b 05 bf 9b cb a1 bf 83 ff df 3e 22 cd cd bf
       -0.5206813 -1.264026 0.43749627 -1.6078227
000190 2e 65 16 3f 58 42 34 bf fe 41 81 bf 6e 2b 8b bf
       0.5874814 -0.7041373 -1.0098264 -1.0872629
0001a0 bf ba 5e bf 04 97 89 bf 8e f5 65 3f 6a ac 91 bf
       -0.870037 -1.0749211 0.8982781 -1.1380742
0001b0 23 fd 19 bf b0 c6 65 3f 0b 28 ec 3c 98 ca 9a be
       -0.6015188 0.897563 0.028827688 -0.30232692
0001c0 c4 b3 d4 be 6d b0 db bf 02 ca df be a3 1c 3e 3f
       -0.415434 -1.7163216 -0.43708807 0.74262446
0001d0 23 43 53 3e d0 e0 dd bf 6d 46 9f be 90 de 48 bf
       0.2063108 -1.7334232 -0.31108418 -0.78464603
0001e0 e3 db 0a 3e 76 ee d0 3e f3 b9 60 3e c0 87 5d bf
       0.13560443 0.4080693 0.21945934 -0.86535263
0001f0 13 a3 18 be 69 c6 e8 bf 2f d3 a7 bf 8a 6c 95 bf
       -0.14905958 -1.818555 -1.3111323 -1.1673748
000200 80 95 82 be 06 8a 17 bf 62 dd de 3e ee 39 d5 bd
       -0.25504684 -0.5919498 0.43528277 -0.1041144
000210 a0 ac 1a 3e 51 fb d6 bf 86 2e f8 bf b4 ad 4a bf
       0.15104914 -1.6795446 -1.9389198 -0.791713
000220 e5 a3 e0 bf 9f 1c 5c 3e 83 ef 23 3e 97 06 0f bf
       -1.7550017 0.21495293 0.16009335 -0.5586943
000230 95 02 d7 bc 4d 96 44 3e 1f 96 df 3d 7c ab ca bf
       -0.026246348 0.1919796 0.10917305 -1.5833583
000240 83 3a 45 bd e0 bb f5 3d da cf f4 be 4b 97 fe be
       -0.048151504 0.11998725 -0.47814828 -0.49724802
000250 e0 3c 2f 3e f0 72 c1 bd 31 8d de be ea 0a 04 c0
       0.17113066 -0.09445751 -0.43467095 -2.0631661
000260 e3 84 18 bd 83 cb 19 3d a9 5f ac 3e bd d8 03 c0
       -0.037236106 0.0375476 0.33666733 -2.0601037
000270 66 f8 e5 bd 2e e8 82 be 74 f0 34 bf 6e 17 8e be
       -0.11229019 -0.25567764 -0.706794 -0.2775225
000280 78 6e 88 3e e2 a6 87 3a 45 e3 11 be 97 56 ef bf
       0.2664678 0.0010349418 -0.14246853 -1.86983
000290 63 4a 60 bf a8 1f 3d 3e d5 96 cd 3a 0d 97 ae 3c
       -0.87613505 0.18469107 0.001568521 0.021312261
0002a0 e7 8b 0f bd 2d ca bb bf cc 58 e6 bf f6 c7 33 be
       -0.03504553 -1.4671074 -1.7995849 -0.17556748
0002b0 3f 67 9f 3e dd 8c 87 3e 1f 90 7a 3e cf 4a 67 bf
       0.31133458 0.26474658 0.2446904 -0.90348524
0002c0 b5 3c a3 3e 8f ca d7 be d5 f6 20 3e 4f 3b 92 bf
       0.31882253 -0.42146727 0.15719159 -1.142435
0002d0 f2 d5 d0 bf c7 50 1b 3f 89 ba c7 bf 28 e4 99 3d
       -1.6315291 0.6067013 -1.5603801 0.075142205
0002e0 2c 46 c6 3e 04 17 ac 3e 9f 9c bd bf 14 2f d8 bf
       0.38725412 0.3361131 -1.4813422 -1.6889367
0002f0 8f c5 4f bf 4a 5d 80 3e 87 a2 8e be 79 bd a4 3e
       -0.81160825 0.25071174 -0.27858374 0.32175806
000300 4c 8f b1 be 3c f3 1c 3e eb 7a bc 3c 9f 2e e7 be
       -0.3467964 0.15327162 0.02300783 -0.45152757
000310 60 a6 e1 be b3 c9 af 3c 1d 7f f8 bd b4 01 18 bd
       -0.44072247 0.021458482 -0.1213362 -0.037111
000320 e4 47 f5 3e 97 d3 e3 bf 4a f3 3c 3c ab 85 4e bf
       0.4790641 -1.7798947 0.011532614 -0.8067271
000330 a5 1b 90 3e df ca eb bf eb 86 9a bf 9b 7e 2d bf
       0.2814609 -1.8421286 -1.2072424 -0.6777131
000340 09 e1 bc bf 4f b8 08 3f 7c f4 17 bf 8d 80 d6 bd
       -1.4756175 0.5340623 -0.5935743 -0.10473738
000350 fc 21 00 bf 1d 90 a0 3d b6 93 9b 3e 99 7c 89 3e
       -0.50051856 0.078399874 0.30386132 0.26852873
000360 df 06 fb 3e e8 31 dc bd d3 23 9b bf 85 bd 01 bf
       0.4902868 -0.10751706 -1.2120308 -0.5067981
000370 cc 61 71 3e b7 52 c4 bf c6 9d 90 bf 5a d4 af bf
       0.23572463 -1.5337743 -1.1298149 -1.373668
000380 62 20 0e bf 92 fa 6c be f7 1f 66 3d 58 04 04 bf
       -0.5551816 -0.2314246 0.056182828 -0.5156913
000390 9f 67 a5 3e 47 64 d0 bf ff de 31 be df 53 c1 bf
       0.3230562 -1.6280602 -0.17370223 -1.510372
0003a0 4a 8a 0a 3e 4c bd 01 be 9f 6f 7f bf e5 28 76 3e
       0.13529316 -0.12669867 -0.99779695 0.24039038
0003b0 64 5f c3 bf 75 68 e7 3e 05 16 d3 3e b0 32 67 3e
       -1.5263486 0.45196882 0.41227737 0.2257793
0003c0 f7 11 d3 bf cf cb b5 bd d5 d9 09 bf 23 92 38 3f
       -1.6489857 -0.08876764 -0.5384801 0.72097987
0003d0 71 ae 19 be 4a 85 a8 bf d9 59 13 3e b5 dc c3 bf
       -0.1500795 -1.3165677 0.14389743 -1.530173
0003e0 f7 4e 23 3f b8 38 1b bd 40 c5 34 bf 1e b2 55 bf
       0.63792366 -0.037895888 -0.7061348 -0.8347491
0003f0 8c cb 19 bf 51 78 fe bf 62 f8 e7 3d 9a 3e ac 3d
       -0.6007621 -1.9880468 0.11326672 0.08410378

l3.bias f4 [35]
000000 50 41 95 3e 7e df 8c 3d 5d a3 53 3d 03 cb 85 3d
       0.29151392 0.06878565 0.051669467 0.06532862
000010 a9 57 00 be 99 a1 90 3e 7e 85 14 ba bb 65 15 be
       -0.1253344 0.2824829 -0.0005665644 -0.14589588
000020 62 01 e6 3b d2 37 4c bf 6c 07 34 3e cb 80 7a 3e
       0.007019208 -0.79772675 0.17580956 0.24463193
000030 60 37 27 3e e8 3f c5 3e ad 80 71 3e 30 77 f2 bd
       0.16329718 0.3852532 0.23584242 -0.118391395
000040 34 64 1f be 49 a8 ca be cd ab d6 3d 7b 31 c0 be
       -0.15565568 -0.39581516 0.10481987 -0.3753775
000050 f0 be 8c be 5c 71 b7 3e c5 68 9d 3d 51 f8 57 be
       -0.27489424 0.35828674 0.07685999 -0.21090819
000060 cd 1d 38 bf 0d 4d b7 3d dc aa d8 3d 26 07 c8 bd
       -0.7192047 0.08950243 0.10579464 -0.097669885
000070 2a 1b c7 bd 1a 1f f9 3e fb 92 9d 3e 02 8e dc bd
       -0.09721978 0.4865654 0.307762 -0.10769273
000080 83 c7 a7 bd f6 fb 0f be 63 95 87 bd
       -0.08192351 -0.14060959 -0.0662029
